my_mnist_model.pt (torch, 444639 bytes, 6 tensors)

weight f4 [128, 784]
0	0x3d0e6058	0.03475985
1	0x3c3d8161	0.011566491
2	0x3c750413	0.014954585
3	0xbc5f3e37	-0.013625673
4	0x3c85c54a	0.016329426
5	0x3c90e504	0.017687328
6	0xbbde97f7	-0.006793018
7	0x3c8ad3e0	0.016946733
8	0x3b4ce751	0.0031265805
9	0xbca2af92	-0.01985911
10	0xbcf1ff0c	-0.029540561
11	0x3d21aa5a	0.0394691
12	0xbbabb034	-0.005239511
13	0xbc17510f	-0.0092356345
14	0xbca6a0b4	-0.020340301
15	0xbcc0afae	-0.02352127
16	0xbcb9a680	-0.022662401
17	0x3a9e7058	0.0012087924
18	0x3d1110e2	0.03541649
19	0x3c0027b0	0.007821962
20	0xbc76286b	-0.015024285
21	0xbbf765ca	-0.007549976
22	0x3a8bb625	0.0010659142
23	0x3bb7fec3	0.0056150868
24	0x3cd15b36	0.025556188
25	0xb95b1d3f	-0.00020896363
26	0x3d20264a	0.039099015
27	0x3c96ca90	0.018407136
28	0xbc3b965f	-0.0114494255
29	0x3d095534	0.03352852
30	0xbcb90ec6	-0.022590052
31	0xbcb6c7ba	-0.022312034
32	0xbcf5ffac	-0.03002914
33	0x3d17c294	0.0370508
34	0x3ced52f5	0.028970221
35	0xbc8749fa	-0.016514767
36	0xbcdcf057	-0.026970072
37	0x3b88ba7f	0.0041726227
38	0x3c826d49	0.015921252
39	0x3d271997	0.04079589
40	0x3d067a14	0.032831267
41	0xbb937647	-0.0045001837
42	0x3c03d96c	0.008047443
43	0xbd0180b1	-0.03161687
44	0x3ce60d93	0.028082645
45	0x3ca8a594	0.020586766
46	0x3c999a3e	0.018750306
47	0x3d296961	0.041360263
48	0xbccd50f0	-0.025063008
49	0x3be47f66	0.006973195
50	0xbb8fa12e	-0.004383228
51	0xbc337a23	-0.010954413
52	0xbc3ca7ef	-0.011514648
53	0x3c884e15	0.016638795
54	0x3c897996	0.01678161
55	0x3be84f6f	0.0070895473
56	0xbcebebe4	-0.028799005
57	0xbc5661d3	-0.013084847
58	0xbcba8640	-0.022769094
59	0x3d0320e6	0.032013796
60	0xbce338f8	-0.027737126
61	0x3d11cd15	0.035595972
62	0xbcce3ce0	-0.025175512
63	0xbb499b1d	-0.003076262
64	0x3ccb9247	0.024850024
65	0x3ccf3b58	0.025296852
66	0x3c8f61bb	0.017502656
67	0xbc655453	-0.013997155
68	0xbc76adf1	-0.015056119
69	0x3baf7e47	0.0053556296
70	0x3ca3a4e9	0.019976096
71	0xbc0d5a27	-0.008627451
72	0xbaa5b8dd	-0.0012643595
73	0x3ce68046	0.028137337
74	0x3bfc2e42	0.007695944
75	0x39e4fc7c	0.00043675664
76	0x3d0bccd1	0.034130875
77	0xbc8449d2	-0.016148482
78	0x3d45c573	0.048284005
79	0x3c239006	0.009983068
80	0x3c2c45d4	0.010514695
81	0x3bd01ee8	0.0063513406
82	0x3c53bdf1	0.0129237035
83	0x3d13f130	0.036118686
84	0x3c40a1b5	0.011757304
85	0xbccb368e	-0.024806287
86	0xbcf94cf3	-0.0304322
87	0x3cba12b9	0.022714006
88	0x3d20aab6	0.039225303
89	0xbd0ead35	-0.03483315
90	0x3ce678f9	0.028133856
91	0xbca79866	-0.020458411
92	0x3c933f38	0.017974481
93	0xba349ff2	-0.0006890289
94	0x3cc46f82	0.023978952
95	0xbcc8afce	-0.024497893
96	0xbc885a3a	-0.016644586
97	0x3d64358a	0.05571512
98	0x3cfdc2d1	0.030976685
99	0xbca9887a	-0.02069496
100	0xbd20f745	-0.039298315
101	0x3c387b51	0.01125987
102	0xbc807663	-0.015681451
103	0x3cc939f2	0.024563763
104	0x3d63b358	0.055590957
105	0x3c526dbe	0.012843547
106	0xbc22f35a	-0.009945715
107	0xbb72c56b	-0.003704394
108	0x3d1cbd66	0.038266562
109	0xbcdfe4ff	-0.027330874
110	0xbc863300	-0.01638174
111	0xbcd37d36	-0.025816541
112	0x3c9bebbe	0.01903331
113	0x3d0f682c	0.035011455
114	0xbcc7a836	-0.024372201
115	0xbcdc80ee	-0.026916947
116	0x3c825ba3	0.015912836
117	0x3c542c55	0.012950023
118	0xbc97228c	-0.01844909
119	0xbd0c190c	-0.034203574
120	0xbd6d820f	-0.05798536
121	0xbc21026c	-0.009827238
122	0x3c2e70d0	0.010647014
123	0x3ca63efb	0.020293703
124	0x3c7b0d9b	0.015323068
125	0x3d2bd772	0.04195351
126	0x3aacafcb	0.0013174949
127	0xbcbba50d	-0.02290585
128	0xbcd695ba	-0.026194442
129	0x3ca076bd	0.019587869
130	0xbc1002f0	-0.008789763
131	0x3c093a58	0.008375727
132	0x3d2e8b80	0.042613506
133	0x3d0f5932	0.034997173
134	0x3d80d2a3	0.06290176
135	0x3cad2e60	0.021140277
136	0x3d380462	0.044926055
137	0x3bfc616b	0.007702043
138	0xbc81deb3	-0.015853262
139	0x3cd28762	0.025699321
140	0xbcf049c2	-0.029332045
141	0xbc414991	-0.011797325
142	0x3cf065be	0.02934539
143	0xbc588776	-0.01321589
144	0x3ca25813	0.019817388
145	0xbd323331	-0.04350585
146	0xbc6a5fa6	-0.014305031
147	0x3c949edb	0.018142154
148	0xbd16530e	-0.0367003
149	0x3d0e06e5	0.034674544
150	0x3d695550	0.056966126
151	0x3ae9e966	0.0017846047
152	0x3c00ff15	0.007873316
153	0x3d66f75b	0.05638824
154	0xbd0ec7c2	-0.034858473
155	0x3abc27cc	0.0014355122
156	0xbc794e2d	-0.015216392
157	0x3d3b992c	0.045800373
158	0x3b1a420c	0.0023537902
159	0xbc1061a2	-0.00881234
160	0x3caaa296	0.02082948
161	0xbd117dfe	-0.035520546
162	0x3d03e583	0.0322013
163	0xbc47b108	-0.012188204
164	0x3ce0bee6	0.027434777
165	0xbb832bd5	-0.004003028
166	0xbc280589	-0.010255226
167	0x3a728c96	0.00092525163
168	0xb7102006	-8.590525e-06
169	0xbc1aa9c7	-0.009439892
170	0xbb7cec79	-0.0038593097
171	0x3b9807ba	0.004639593
172	0x3ca08baa	0.019597847
173	0x3ba60dbe	0.005067556
174	0xbcc93df8	-0.024565682
175	0xbc953418	-0.018213317
176	0x3d2f0425	0.042728562
177	0xbaab3072	-0.0013060702
178	0xbb886a76	-0.0041630818
179	0x3d963f4d	0.073362924
180	0xbcb7bfe1	-0.022430362
181	0xbd89f4c2	-0.06736137
182	0xbc625412	-0.013813989
183	0xbdaa2fe1	-0.083099134
184	0xbd2da0f6	-0.042389832
185	0x3c405adf	0.011740415
186	0x3cbfaf9f	0.023399172
187	0x3c7a0da2	0.015262039
188	0xbce9649a	-0.028490353
189	0xbd3c0f72	-0.045913167
190	0xbd552fd6	-0.052047573
191	0xbcfcb270	-0.030846804
192	0xbd188eeb	-0.037245672
193	0xbcc1b5da	-0.023646284
194	0xbc30ed0f	-0.010798707
195	0xbcd90e21	-0.026495995
196	0x3d25a435	0.040439803
197	0x3abff2f2	0.0014644547
198	0x3cf42ddf	0.02980703
199	0xbbafd0bd	-0.0053654597
200	0xbcb871ab	-0.022515139
201	0x38e58682	0.00010944625
202	0xbcc23840	-0.023708463
203	0xbd0287ab	-0.031867664
204	0x3d55098f	0.05201107
205	0x3cbb493b	0.022862067
206	0x3db075ee	0.08616243
207	0x3cc3bfdf	0.023895202
208	0xbcb24814	-0.021762885
209	0xbd45905f	-0.048233386
210	0xbd7b8908	-0.06140998
211	0x3d0b1d72	0.033963628
212	0x3d18d9ef	0.037317213
213	0x3c91767b	0.017756691
214	0x3bb4b0e0	0.005514249
215	0xbbab3a8a	-0.0052254843
216	0xbc8e4509	-0.017366903
217	0x3baa4f69	0.0051974547
218	0x3cce46f9	0.025180327
219	0xbaaf3bad	-0.0013369225
220	0x3a955fe7	0.0011396379
221	0xbcc86a8e	-0.024464872
222	0xbc4ec657	-0.01262053
223	0xbbf92bc6	-0.007604095
224	0x3cc04fdb	0.023475578
225	0x3d0bfe03	0.03417779
226	0x3bd5d467	0.0065255645
227	0xbbda91ef	-0.0066702287
228	0xbd0b2c14	-0.033977583
229	0xbb5d608c	-0.003377947
230	0x3c4b66ae	0.012414617
231	0xbd512790	-0.05106312
232	0xbb7eb67b	-0.003886609
233	0x3e0c8def	0.13726018
234	0x3d1b5196	0.037919603
235	0x3c2dcbab	0.01060764
236	0xbdc65706	-0.09684567
237	0xbe0642d6	-0.13111433
238	0xbd44729a	-0.047960855
239	0x3d17e167	0.037080195
240	0x3ce019a2	0.027355973
241	0xbc824fb2	-0.015907142
242	0xbc9c4743	-0.019076949
243	0xbd80023b	-0.062504254
244	0xbc6f4a15	-0.014605065
245	0xbb74c964	-0.0037351483
246	0xbdb3dc31	-0.087822326
247	0xbd205523	-0.039143693
248	0xbc4b83e1	-0.012421579
249	0xbc5e986f	-0.013586148
250	0xbb6e8cbb	-0.00363998
251	0x3c98fb02	0.018674377
252	0xbc8b5218	-0.017006919
253	0xbce98a16	-0.028508227
254	0xbc323842	-0.010877671
255	0x3b080391	0.002075408

bias f4 [128]
0	0x3ce76210	0.028245002
1	0xbc196222	-0.009361776
2	0xbd003a58	-0.03130564
3	0x3c8c60fc	0.01713609
4	0x3ceee727	0.029162956
5	0xbbbadde0	-0.005702719
6	0xbc9f223f	-0.01942551
7	0x3d08464a	0.033270158
8	0x3cb70726	0.022342276
9	0x3d0fbe45	0.035093565
10	0xbb10c52b	-0.0022090178
11	0xbbd3b682	-0.0064609656
12	0xbd099298	-0.03358707
13	0xbb663e6d	-0.0035132424
14	0xbc80f0e0	-0.015739858
15	0xbbca98f0	-0.0061827824
16	0xbc8e9f90	-0.01741007
17	0xbc0cf201	-0.00860262
18	0x3cc066c3	0.0234865
19	0x3c8c1bd7	0.017103119
20	0x3cfb0c95	0.030645648
21	0xbc02ec23	-0.00799087
22	0xbbd19ff8	-0.0063972436
23	0x3ca65e85	0.020308742
24	0x3c3c44cd	0.011491013
25	0x3cc20b4d	0.02368703
26	0xbc74ddaa	-0.014945427
27	0xbd264272	-0.04059071
28	0x3d27caf6	0.040965043
29	0xbc5f6f72	-0.0136374105
30	0x3cbb4bfc	0.02286338
31	0x3c465588	0.012105353
32	0xbb2ffaf2	-0.0026852456
33	0xbcadec06	-0.021230709
34	0x3c52e7c8	0.012872644
35	0x3ba2970e	0.004961855
36	0xbca8a7f5	-0.0205879
37	0xba10c919	-0.000552313
38	0x3cccdca6	0.025007557
39	0x3d043717	0.0322791
40	0xbcacad14	-0.021078624
41	0x3cece0e4	0.02891583
42	0x3cf47a09	0.029843347
43	0x3bbd6fc8	0.0057811476
44	0x3d0cd8fc	0.03438662
45	0xbce2da8d	-0.027692104
46	0xbc9a0692	-0.018801961
47	0x3b66b5f4	0.0035203667
48	0xbc24d505	-0.010060553
49	0x3cb20195	0.02172927
50	0xbaa86e01	-0.0012850167
51	0x3b43f279	0.0029899164
52	0xbc12717a	-0.008938188
53	0xbcb22ca3	-0.0217498
54	0xbcee9eb1	-0.029128404
55	0x3d2cefd6	0.042220913
56	0xbd0c1709	-0.034201656
57	0xbcab63cd	-0.020921612
58	0x3c187795	0.009305854
59	0x3cd5b728	0.026088312
60	0x3bfa0fbf	0.0076312716
61	0xbc5fd1d4	-0.013660867
62	0x3c7d9808	0.015478142
63	0xbbb450bf	-0.0055027897
64	0xbd01abe7	-0.03165808
65	0xbb18c25c	-0.0023309207
66	0x3b44a67f	0.0030006466
67	0xbc23ebea	-0.010004977
68	0xbd117e4c	-0.035520837
69	0xbcd9ce29	-0.026587563
70	0xbc5be301	-0.013420821
71	0xbce9baa2	-0.028531376
72	0x3af5fa4c	0.0018766611
73	0xbd12eecb	-0.035872262
74	0xbcc1f268	-0.023675159
75	0xbbe479ed	-0.0069725425
76	0x3a8414d0	0.0010077003
77	0xbccc427f	-0.024934052
78	0x3c5dd941	0.013540567
79	0x3cc0a5ed	0.02351662
80	0xbcb6de83	-0.022322899
81	0x3cf402a2	0.029786412
82	0x3ce0f070	0.0274584
83	0x3c8eb02f	0.017417995
84	0x3cec6b25	0.028859684
85	0xbc1b97c6	-0.009496635
86	0x3cc765c3	0.024340516
87	0xbc5a7c68	-0.013335325
88	0x3caef590	0.021357328
89	0x3c8187df	0.015811859
90	0xbc09cd09	-0.008410701
91	0xbc16773c	-0.009183701
92	0xbd09de05	-0.033659
93	0xbca9cfa7	-0.0207289
94	0xbcf797f4	-0.030223824
95	0x3d1ebf59	0.038756702
96	0xbc0ac7f6	-0.008470526
97	0x3bf8ea78	0.00759631
98	0xbc48ffd6	-0.012268027
99	0x3cfc0b94	0.03076724
100	0x3ce8d0e2	0.028419916
101	0xbc017a73	-0.007902729
102	0xbd084b69	-0.03327504
103	0x3d053d08	0.032528907
104	0x3c07a6ff	0.008279561
105	0xbc494c1f	-0.012286215
106	0xbbc866b8	-0.0061157607
107	0x3ce12b22	0.027486388
108	0x3c886a0f	0.016652135
109	0xbd0cf5c0	-0.034414053
110	0x3cf85c6b	0.030317506
111	0xbcedf988	-0.02904965
112	0x3c477752	0.012174444
113	0x3c7f3291	0.015576021
114	0xbcce77b7	-0.025203569
115	0xbb78ef8e	-0.0037984583
116	0x3c6e2598	0.01453533
117	0xbc232234	-0.009956885
118	0x3bda3b1f	0.00665988
119	0x3d1ce564	0.0383047
120	0xbbfe2377	-0.0077556926
121	0xbce23cbf	-0.027616857
122	0x3cd0ef8f	0.025504855
123	0xbba07ce2	-0.0048976997
124	0x3bf7ca1a	0.007561934
125	0x3c1e739a	0.009671116
126	0xbc28cc63	-0.010302636
127	0x3cd08ac2	0.02545679

weight f4 [64, 128]
0	0x3dd08d6f	0.10183226
1	0xbdbc73ce	-0.092017755
2	0x3e23767a	0.15963164
3	0x3d75239e	0.05984842
4	0x3d130982	0.03589774
5	0xbd99ed35	-0.07515947
6	0x3e11bee1	0.14232971
7	0x3d89b68a	0.0672427
8	0xbc1fd7fb	-0.009756084
9	0x3dc45ee5	0.09588412
10	0x3df2fb1b	0.11864301
11	0x3d121bb3	0.035670947
12	0xbc29955b	-0.0103505505
13	0x3d81c69a	0.06336708
14	0x3ca4079a	0.020023156
15	0xbd9e1f8d	-0.077208616
16	0xbe1b548a	-0.15168968
17	0x3d1625a1	0.03665698
18	0x3dfc0fc5	0.12307695
19	0xbd8cd4df	-0.068765394
20	0x3cf651b1	0.03006825
21	0x3e778405	0.24171455
22	0x3dc3cc9d	0.09560511
23	0x3cbbf033	0.022941684
24	0x3bf6c033	0.007530236
25	0x3c701969	0.014654496
26	0xbd822ad2	-0.063558236
27	0xbd5a1f6b	-0.05325262
28	0x3d30da51	0.043176953
29	0xbcab87ba	-0.020938743
30	0x3d976fd0	0.073943734
31	0x3dcaa5c3	0.09894898
32	0xbcf8403e	-0.03030407
33	0x3e02459d	0.12721868
34	0xbd1fedbf	-0.03904509
35	0xbbec1aeb	-0.0072053573
36	0x3e21514b	0.15753667
37	0xbd124d20	-0.035718083
38	0xbcf69974	-0.030102469
39	0xbe777efa	-0.24169531
40	0x3e8031c0	0.25037956
41	0xbd8e7d56	-0.069575
42	0xbd565729	-0.052329216
43	0xbd2185ad	-0.039434124
44	0xbbab45c1	-0.005226821
45	0x3e260bf4	0.16215497
46	0xbd952a36	-0.07283442
47	0xbd0c05a7	-0.034185078
48	0x3d3c7b66	0.04601612
49	0x3e1be6ef	0.15224813
50	0x3c1d8c02	0.0096159
51	0x3dc0b295	0.09409062
52	0xbe12b70c	-0.1432764
53	0xbdd01055	-0.10159365
54	0x3a504fe2	0.0007946474
55	0xbdccf756	-0.10008113
56	0x3d580105	0.052735347
57	0xbc74d434	-0.014943171
58	0x3ce738ce	0.028225329
59	0xbd93f98b	-0.07225331
60	0x3d3c8847	0.0460284
61	0x3d1e9150	0.0387128
62	0xbd05c7de	-0.03266131
63	0x3e6984ba	0.22804537
64	0x3d26d2b7	0.040728297
65	0x3dbc36e5	0.09190158
66	0xbd93f791	-0.07224954
67	0xbd896f47	-0.067106776
68	0xbd3e4122	-0.046448834
69	0x3dcbf2ef	0.09958445
70	0x3e5db69c	0.21651691
71	0xbc5b3030	-0.013378188
72	0xbd9bae01	-0.07601548
73	0x3e919268	0.28432012
74	0xbc3f05e8	-0.011659123
75	0xbdca81aa	-0.09888013
76	0xbe3aa5a4	-0.1822725
77	0xbdab4936	-0.08363573
78	0x3d99a882	0.075028434
79	0x3d10544b	0.035236638
80	0x3d0a30a2	0.033737786
81	0x3d2ba109	0.041901622
82	0x3c83e670	0.016101092
83	0x3e685cab	0.226916
84	0xbd951aab	-0.07280477
85	0xbe35d73b	-0.17757885
86	0x3dfdea1f	0.12398171
87	0x3e314232	0.17310408
88	0xbd0d9846	-0.034569047
89	0x3e4cb1cc	0.19989699
90	0x3c182b90	0.00928773
91	0xbbbb14c5	-0.005709263
92	0xbd3cda11	-0.0461064
93	0x3d79bb33	0.060969543
94	0x3c6a7e2b	0.014312307
95	0xbdf78c87	-0.1208735
96	0x3d5cef11	0.05393893
97	0xbd985907	-0.074388556
98	0x3e30dfb1	0.17272831
99	0xbdb8f1b6	-0.09030478
100	0xbdffceed	-0.1249064
101	0x3d14b021	0.036300782
102	0x3d813a59	0.06309957
103	0x3e2f6079	0.17126645
104	0xbd8cfd26	-0.06884222
105	0xbd95d4ee	-0.07316004
106	0xbd12f569	-0.035878573
107	0x3db893a9	0.09012539
108	0xbdc909a1	-0.0981629
109	0x3ea2df7b	0.31811127
110	0xbcf62fe4	-0.030052133
111	0x3bf62030	0.0075111613
112	0xbc8b6151	-0.017014178
113	0x3db84d72	0.089991465
114	0x3c52a117	0.01285579
115	0x3e1e9a07	0.15488444
116	0xbd5911f5	-0.05299564
117	0x3d9af8b8	0.075669706
118	0xbe23f3d4	-0.16010982
119	0xbd9da8f7	-0.07698243
120	0xbbd85846	-0.00660232
121	0x3c2b6f1d	0.010463503
122	0x3d71314a	0.058884896
123	0x3ddf31d7	0.10898178
124	0x3e171531	0.14754178
125	0x3b0f882b	0.002190123
126	0xbdb914e2	-0.09037186
127	0x3c538186	0.012909299
128	0x3e30df2c	0.17272633
129	0xbe2d10fc	-0.1690101
130	0xbe845d79	-0.25852564
131	0xbd7b38a2	-0.061333306
132	0x3e8cd920	0.27509403
133	0xbd1086c8	-0.035284787
134	0x3e3988f9	0.18118657
135	0x3e03deb7	0.12877928
136	0xbd5fa7ba	-0.054603316
137	0xbc18f4e0	-0.0093357265
138	0xbd41bfd0	-0.047302067
139	0xbdf50680	-0.119641304
140	0xbe155a8c	-0.14585322
141	0x3df8b2de	0.12143491
142	0x3e05f41a	0.13081399
143	0xbe3ef2f1	-0.18647362
144	0xbddf95e3	-0.109172605
145	0x3e560623	0.20900778
146	0x3cd9bd31	0.026579471
147	0x3df03bb6	0.11730139
148	0x3e1487e5	0.14504965
149	0xbe3b515f	-0.1829276
150	0xbe8826bc	-0.26592052
151	0x3c1bb54b	0.009503673
152	0x3e7e21a6	0.24817523
153	0xbd67187d	-0.05641984
154	0xbc826aa6	-0.015919995
155	0xbe9ba1bb	-0.30396828
156	0x3e3932db	0.18085806
157	0x3e43559c	0.19075626
158	0x3d6879ec	0.0567569
159	0xbdc8c2fb	-0.098028146
160	0xbd0cb8e5	-0.034356017
161	0xbe5a363a	-0.21309748
162	0x3db1615a	0.086611465
163	0x3d4c14d1	0.04982454
164	0xbe68285d	-0.22671647
165	0x3e2c5f81	0.16833307
166	0x3d858b75	0.0652074
167	0xbd6542b3	-0.055971812
168	0xbea02d1b	-0.31284413
169	0x3dae99ad	0.08525405
170	0xbcaeb769	-0.021327691
171	0x3ddd7476	0.10813229
172	0x3d46adcb	0.048505586
173	0xbe0e26d8	-0.13882005
174	0xbe142dd6	-0.1447061
175	0xbdc74ba4	-0.09731224
176	0x3e71f0a2	0.2362695
177	0x3b1b5879	0.0023703857
178	0xbe613553	-0.21992998
179	0x3d7bf216	0.061510168
180	0xbe4705b3	-0.19435768
181	0xbbd49298	-0.006487202
182	0x3df8e7d1	0.121535905
183	0xbd988c05	-0.074485816
184	0x3d4884c1	0.04895473
185	0x3e1da479	0.15394773
186	0xbe18f403	-0.14936833
187	0x3b91667c	0.004437266
188	0x3925aec6	0.00015800734
189	0x3e97e7fc	0.29669178
190	0x3db7d13c	0.08975455
191	0xbe63f8f0	-0.22262931
192	0x3e4b4a03	0.19852452
193	0x3e55a1c5	0.20862491
194	0x3d1beca7	0.038067486
195	0xbdfba02f	-0.12286412
196	0x3e0b923e	0.13630006
197	0x3e9757e8	0.29559255
198	0xbe237700	-0.15963364
199	0x3bf5512d	0.0074864835
200	0x3c8759fe	0.016522404
201	0xbeb629ed	-0.35578862
202	0xbe2dd356	-0.1697515
203	0x3e5e9876	0.21737847
204	0xbc90c56e	-0.017672267
205	0x3df7cd80	0.12099743
206	0xbc468749	-0.012117215
207	0x3c96a4e6	0.018389177
208	0x3cab40c2	0.020904902
209	0x3d31177e	0.043235295
210	0x3dd8748b	0.10569104
211	0x3cf99afc	0.03046941
212	0xbe97c9ad	-0.29646054
213	0xbe3ed8d0	-0.18637395
214	0x3e347b7a	0.17625228
215	0xbc5ed3e0	-0.01360032
216	0xbd0059db	-0.031335693
217	0x3cc09c5f	0.023512064
218	0x3de50ad2	0.111837044
219	0xbe6dee7d	-0.23235507
220	0xbd1b36b6	-0.037893973
221	0x3cbd7b95	0.023130218
222	0xbd5392e9	-0.051653776
223	0x3d4480cd	0.047974396
224	0x3dff0e29	0.12453873
225	0x3d097c8c	0.033566043
226	0x3d8f55d4	0.06998792
227	0xbc4dc71a	-0.012559677
228	0xbd9288e9	-0.0715502
229	0x3e527f09	0.20556273
230	0xbc924764	-0.017856307
231	0xbd14446c	-0.036198065
232	0x3d424df5	0.047437627
233	0x3d45d9cb	0.048303407
234	0xbe1a5a79	-0.15073575
235	0x3ddd3c56	0.10802524
236	0xbe8cf104	-0.2752763
237	0x3e045a46	0.12925062
238	0xbe3ee5de	-0.18642375
239	0xbda1246a	-0.078682736
240	0x3ca509de	0.020146307
241	0xbd912796	-0.070876285
242	0xbe1a7ad8	-0.15085924
243	0xbd0c6b7b	-0.03428219
244	0xbd82b9dc	-0.06383106
245	0xbe091732	-0.13387755
246	0xbd50679d	-0.050880063
247	0x3dd43785	0.10362152
248	0x3def39a2	0.116809145
249	0x3cf0a7ad	0.029376829
250	0xbd0f6884	-0.035011783
251	0x3d2cf1c6	0.04222276
252	0xbe51e1af	-0.20496248
253	0xbc18ed64	-0.009333942
254	0x3d759adb	0.059962135
255	0xbea40e08	-0.32041955

bias f4 [64]
0	0xbc348e49	-0.011020252
1	0x3d6fd8fa	0.058556534
2	0xbd41e0a8	-0.04733339
3	0x3e0f5ffc	0.14001459
4	0x3da0b6d0	0.07847369
5	0xbce51c82	-0.027967695
6	0x3dd68b7f	0.104758255
7	0x3d7e37f4	0.06206508
8	0x3dc606d1	0.09669269
9	0x3b9af17a	0.0047284933
10	0x3d0257df	0.03182208
11	0x3da28010	0.07934582
12	0xbd120723	-0.035651337
13	0xbdbac525	-0.091196336
14	0x3d8e6313	0.06952491
15	0x3d98afd5	0.07455412
16	0x3a96f551	0.0011517202
17	0xbd25ada4	-0.0404488
18	0x3d942f0b	0.07235535
19	0x3d889362	0.06668736
20	0x3cf1d2a7	0.029519392
21	0xbc9b925f	-0.018990694
22	0x3ca9e949	0.020741122
23	0xbcfd3a4c	-0.030911587
24	0xbd8b221f	-0.067936175
25	0xbaf043cc	-0.0018330752
26	0xbd846aad	-0.06465659
27	0xbd558df0	-0.052137315
28	0xbdce17f9	-0.10063166
29	0x3dae8633	0.0852169
30	0xbd69f30d	-0.057116557
31	0x3bc94bf6	0.0061430885
32	0x3d506baa	0.050883926
33	0xbc3d889a	-0.011568213
34	0x3ccca640	0.024981618
35	0xbd9259d8	-0.071460426
36	0x3d8c9e67	0.0686615
37	0xbd91030f	-0.070806615
38	0x3d13283f	0.035927054
39	0xbb345d43	-0.0027521409
40	0x3d933276	0.07187359
41	0xbd563fa8	-0.0523068
42	0x3ca4458a	0.02005269
43	0x3d98f520	0.07468629
44	0xbd0e5c58	-0.034756035
45	0xbd77a9f5	-0.060464818
46	0xbd0e6702	-0.034766205
47	0x3d52b343	0.05144049
48	0xbd4c3f2f	-0.049864944
49	0xbcf2a5d0	-0.029620081
50	0xbcd78503	-0.026308542
51	0xbda3c37a	-0.079962686
52	0x3ccfd74d	0.025371218
53	0x3cf70980	0.030155897
54	0xbd0f5525	-0.03499331
55	0xbd28c942	-0.04120756
56	0xbd9f3ebf	-0.0777564
57	0x3d0302f0	0.031985223
58	0xbd1c9e03	-0.03823663
59	0xbca79e3f	-0.0204612
60	0xbd4c2d57	-0.049847927
61	0xbd397d15	-0.045285303
62	0xbd3fa94c	-0.046792313
63	0xbcd43e52	-0.025908623

weight f4 [26, 64]
0	0xbd155cdd	-0.036465514
1	0xbe5f8e9b	-0.21831743
2	0x3dceabc7	0.10091358
3	0x3ea5592e	0.322946
4	0xbe217177	-0.1576594
5	0xbedf49e5	-0.43611065
6	0xbe9b18f7	-0.30292484
7	0xbe8c7fe2	-0.27441317
8	0xbde873dc	-0.113502234
9	0x3e3a2775	0.18179114
10	0xbda1d310	-0.07901585
11	0x3c96052a	0.01831301
12	0x3ec81969	0.39081886
13	0x3c457cca	0.012053678
14	0x3d27724c	0.040880486
15	0xbdbc26f6	-0.09187119
16	0x3dde8a85	0.10866264
17	0xbe30479b	-0.17214815
18	0x3cf49f04	0.02986098
19	0xbde22e2d	-0.110439636
20	0x3e5de2e6	0.21668586
21	0xbdc38504	-0.09546855
22	0x3e12a5cd	0.1432106
23	0xbda3f703	-0.08006098
24	0x3e6fe86a	0.23428503
25	0x3d90a02a	0.07061799
26	0xbdb67cb0	-0.08910501
27	0xbace34c1	-0.0015732275
28	0x3ec70bfe	0.38876337
29	0xbeb18ee9	-0.34679344
30	0xbc409b06	-0.0117557105
31	0xbebb094c	-0.3653053
32	0x3dbfe6be	0.093701825
33	0x3db05515	0.08609978
34	0xbebbe1a4	-0.36695588
35	0x3cdc2b92	0.026876245
36	0xbdb95fcd	-0.09051476
37	0x3deb23c9	0.11481435
38	0x3e2a8f38	0.16656196
39	0xbf202ce7	-0.62568516
40	0xbc4e9679	-0.012609118
41	0x3d321808	0.04347995
42	0x3cda0a38	0.0266162
43	0x3ed603f4	0.4179989
44	0x3e7ec277	0.2487887
45	0x3d1a25b7	0.037633624
46	0x3e0a1333	0.13483886
47	0xbe62b624	-0.22139794
48	0x3f420d82	0.7580186
49	0x3e0b2bc7	0.13590918
50	0xbddfc3d3	-0.109260224
51	0x3f2d1a50	0.67618275
52	0x3dc41ee0	0.095762014
53	0x3d774f8a	0.06037859
54	0x3df9ea84	0.122029334
55	0x3e01fe2f	0.1269462
56	0xbe296432	-0.16542128
57	0xbe3111a2	-0.17291883
58	0xbdc00b00	-0.09377098
59	0xbc62d039	-0.013843589
60	0xbf46ceb8	-0.7765918
61	0x3e58fd02	0.21190265
62	0xbdb1c947	-0.08680969
63	0x3dd2d506	0.10294537
64	0x3d4a6917	0.049416628
65	0xbf01fe20	-0.5077839
66	0xbde1e63f	-0.11030244
67	0xbf30fa94	-0.6913235
68	0x3dc324c2	0.09528495
69	0xbd9bda84	-0.07610038
70	0x3c968919	0.01837592
71	0xbd8882e2	-0.06665589
72	0xbce0a58f	-0.027422694
73	0x3dfebd14	0.124384075
74	0xbd5aee44	-0.053449884
75	0xbe108b76	-0.141157
76	0x3cc09902	0.02351046
77	0x3f456561	0.77107817
78	0xbd93236d	-0.07184491
79	0xbd45b3fe	-0.048267357
80	0xbdabc06a	-0.083863094
81	0xbe47dced	-0.1951787
82	0x3e0ef07e	0.13958928
83	0xbdfdda45	-0.12395147
84	0x3f1007e1	0.5626202
85	0x3cbba764	0.022906967
86	0xbe7998c3	-0.2437468
87	0xbed4d776	-0.41570634
88	0x3ecb546f	0.39712855
89	0xbdf641f1	-0.12024296
90	0xbe708ede	-0.23492
91	0xbe6bd216	-0.2302936
92	0x3edf0c1c	0.43563926
93	0x3f1279b4	0.57216954
94	0xbbfcf3b4	-0.0077194814
95	0x3e8f7d23	0.2802516
96	0xbdba6fd0	-0.09103358
97	0x3dbeb86a	0.09312518
98	0x3d344b6e	0.044017248
99	0x3c86fd7e	0.016478296
100	0xbc949950	-0.018139511
101	0x3d8ae452	0.0678183
102	0x3e61978d	0.22030468
103	0x3bd07c02	0.006362439
104	0xbdf3758c	-0.11887655
105	0x3e1a668d	0.15078183
106	0xbd469258	-0.048479408
107	0x3e53fab3	0.20701103
108	0x3e7130ce	0.23553774
109	0x3ec93a2f	0.39302203
110	0xbcbd858b	-0.023134967
111	0x3e867c35	0.26266637
112	0xbd7570d0	-0.05992204
113	0x3e6c6f3a	0.23089305
114	0xbdcf7038	-0.10128826
115	0xbe54e450	-0.2079022
116	0xbe304ec2	-0.17217544
117	0xbdcd394d	-0.10020695
118	0xbe472172	-0.19446352
119	0xbcc67526	-0.024225783
120	0x3d1d7d82	0.03844977
121	0x3e1e7212	0.15473202
122	0x3e2418fb	0.16025154
123	0x3e234c25	0.15947016
124	0x3f3ad4bf	0.72980875
125	0xbe7a19b9	-0.24423875
126	0xbeb509ac	-0.35358942
127	0xbe7a9b91	-0.24473406
128	0xbd5415dc	-0.05177866
129	0xbe165b12	-0.14683178
130	0x3d840337	0.06445926
131	0xbe562a7c	-0.20914644
132	0xbdef2fa0	-0.116790056
133	0x3ea4c75b	0.32183346
134	0xbe66039f	-0.22462319
135	0xbed0f63d	-0.40812865
136	0xbd3ade22	-0.045622
137	0x3cb22925	0.021748135
138	0x3e410bf6	0.18852219
139	0xbe53ede8	-0.20696223
140	0xbecc8c3a	-0.39950734
141	0xbd6f7a9f	-0.05846655
142	0xbdd096cf	-0.101850145
143	0xbc18fb04	-0.009337191
144	0xbccaa418	-0.02473645
145	0xbe8e6f65	-0.27819362
146	0xbea98187	-0.33106634
147	0x3d2ceb7d	0.042216767
148	0xbf101676	-0.5628427
149	0xbdc8aced	-0.09798608
150	0xbe022822	-0.12710622
151	0x3e8436e4	0.25823128
152	0xbe20de0b	-0.15709703
153	0x3df5711a	0.11984463
154	0xba025e6a	-0.0004973175
155	0x3d8f3b62	0.06993748
156	0x3f3da583	0.74080676
157	0x3e09f68d	0.13472958
158	0xbed90c0a	-0.42391998
159	0xbe7fd496	-0.24983439
160	0x3d9b84ce	0.0759369
161	0xbcae829c	-0.021302514
162	0x3f21d5f4	0.6321709
163	0x3d80de18	0.06292361
164	0x3dc432a9	0.09579975
165	0x3dc7509c	0.09732172
166	0x3eb2d4c5	0.34927955
167	0x3d4bf5d4	0.049794987
168	0xbd59f9f3	-0.053216886
169	0xbd0f417a	-0.034974553
170	0x3d9b1b12	0.075735226
171	0xbeb4e0b6	-0.3532769
172	0x3ebbef3f	0.36705968
173	0x3eb8d3df	0.36099145
174	0xbe25ad1f	-0.16179322
175	0xbe04a6cf	-0.12954257
176	0x3ec8e761	0.39239028
177	0x3ea24e34	0.3170029
178	0xbd8fa676	-0.07014172
179	0x3e6e0b9f	0.2324662
180	0xbdcef384	-0.10105041
181	0x3e498cdc	0.1968264
182	0x3f19d7f6	0.60095155
183	0xbd398272	-0.045290418
184	0xbc27acd1	-0.010234074
185	0xbec6c08b	-0.38818774
186	0xbe049a53	-0.12949495
187	0x3dc8dc0a	0.09807594
188	0x3f0fbb8f	0.56145567
189	0x3df1ba6d	0.11803136
190	0x3f45a53f	0.7720527
191	0xbe499b5a	-0.19688168
192	0x3e430437	0.19044577
193	0xbeb72fbd	-0.3577861
194	0xbd5b687d	-0.053566445
195	0xbec45325	-0.38344684
196	0x3f0a0a90	0.5392237
197	0xbe812c99	-0.25229338
198	0x3ec50080	0.38476944
199	0x3ece7bf3	0.4032894
200	0x3e3265c0	0.17421627
201	0xbe6f7441	-0.23384191
202	0x3dda8420	0.10669732
203	0x3dd9bd47	0.10631805
204	0x3f15054f	0.58211225
205	0xbf227166	-0.6345428
206	0xbcc508ca	-0.024052043
207	0x3ba76808	0.005108837
208	0x3df0aeed	0.117521144
209	0x3d3555fd	0.044271458
210	0xbed1455e	-0.40873235
211	0x3e3d6682	0.18496135
212	0xbe2198ac	-0.15780896
213	0x3ddcdff5	0.10784904
214	0x3f4deb9c	0.80437636
215	0x3e69a237	0.22815786
216	0x3c85732f	0.016290275
217	0xbd8bfe11	-0.06835569
218	0x3e443fc9	0.19164957
219	0xbd9d4990	-0.076800466
220	0x3eaaf8f0	0.3339305
221	0xbe882d84	-0.26597226
222	0x3de64914	0.11244407
223	0xbe5bf25d	-0.21479173
224	0xbc361f8b	-0.011115919
225	0x3c4084b6	0.011750391
226	0xbde628cf	-0.11238252
227	0x3dea88dd	0.11451886
228	0xbddc40e8	-0.107545674
229	0x3ed4ddea	0.41575557
230	0x3e822aa4	0.25423157
231	0x3ecf826d	0.40529194
232	0x3da9e593	0.08295741
233	0xbda65529	-0.08121712
234	0xbd57f156	-0.05272039
235	0xbd035a88	-0.03206876
236	0xbebb04fe	-0.36527246
237	0x3e4d57e4	0.20053059
238	0xbcc3a058	-0.023880169
239	0x3f0b373a	0.54381144
240	0xbe562d1a	-0.20915642
241	0xbeb3f063	-0.35144338
242	0xbd9dd2d2	-0.077062264
243	0xbd251dea	-0.04031173
244	0xbdb799e0	-0.08964896
245	0xbe40b91d	-0.18820615
246	0xbe8f4998	-0.27985835
247	0x3e50d259	0.20392741
248	0x3d1336af	0.035940822
249	0x3f0933e6	0.53594816
250	0xbed0e91a	-0.40802842
251	0xbe41edf6	-0.18938431
252	0x3e82df03	0.2556077
253	0x3e21f2e6	0.15815315
254	0x3e71cf4c	0.23614234
255	0x3d683f4f	0.056701

bias f4 [26]
0	0xbd36f6ba	-0.04466889
1	0x3dd9e67d	0.10639665
2	0x3e0ea69e	0.13930747
3	0x3d7dda20	0.0619756
4	0x3e1c87ef	0.1528623
5	0x3e277998	0.16354978
6	0x3e4c4dea	0.19951597
7	0xbd38f367	-0.045154
8	0x3e50dfb5	0.20397837
9	0xbc4dbd8a	-0.012557397
10	0xbd69bf9d	-0.057067502
11	0xbe1c07ed	-0.15237398
12	0x3cf9a5ce	0.03047457
13	0xbe022150	-0.1270802
14	0xbda3bbd5	-0.079948105
15	0xbdb26d71	-0.087122805
16	0x3cb6a6f5	0.022296408
17	0xbdf4a396	-0.11945264
18	0xbd064112	-0.0327769
19	0xbd97ffb7	-0.074218206
20	0xbe01ab6a	-0.12663046
21	0xbd1ebe79	-0.038755868
22	0xbe15c1d1	-0.14624716
23	0xbcc716cb	-0.02430286
24	0xbd6fecad	-0.05857532
25	0xbde559ab	-0.111987434
